model/Model_P3.3_training.onnx (onnx, 406043 bytes, 284 tensors)

DB_1.DB.0.weight f4 [8, 3, 1, 1]
0.0023879088 -0.005550469 0.1346303 0.19565119 0.1835155 -0.33360445 0.013565043 -0.15527813
-0.16062728 -0.05777059 -0.06777084 -0.118584655 -0.27572468 0.042616215 0.21839337 -0.026232557
0.16104305 -0.002208451 -0.007961423 -0.16822954 0.054931514 0.23659053 -0.31264898 0.010139157
00000000: 767e 1c3b b5e0 b5bb 86dc 093e c958 483e
00000010: 7deb 3b3e 34ce aabe ea3f 5e3c 3b01 1fbe
00000020: 7a7b 24be dba0 6cbd 70cb 8abd 83dc f2bd
00000030: c92b 8dbe 578e 2e3d 83a2 5f3e a9e5 d6bc
00000040: 78e8 243e a9bb 10bb a170 02bc 5d44 2cbe
00000050: deff 603d ca44 723e 8713 a0be b51e 263c

stage1_DB.0.DB.0.weight f4 [8, 8, 1, 1]
-0.13669571 -0.15683691 0.04900856 0.0061263544 -0.007422217 0.0349688 -0.0082283085 -0.05540397
-4.931e-41 -1.3604e-40 3.025e-41 -3.6564e-41 4.97e-42 -7.0887e-41 5.578e-41 7.512356e-31
4.836e-41 -1.396e-42 -6.7208e-41 7.1157e-41 -4.424e-42 -7.2273e-41 -2.451e-41 1.108774e-26
-0.027634446 -0.03715374 -0.28136703 0.033879753 -0.027162889 0.049281493 0.012950027 0.006153553
-0.010147421 0.20114796 -0.039247315 -0.005640905 0.077447794 -0.07422912 0.04016258 -0.038875
0.124778375 0.046398472 -0.024660923 0.065070406 -0.047521815 0.12605281 0.010326915 -0.03625446
-0.06172068 -0.029473294 -0.083070144 0.20808397 -0.059076738 -0.046216168 -0.04529274 -0.04041171
0.1231202 0.0038448249 -0.03641426 -0.003614858 0.042124312 -0.072094485 0.010712972 -0.13176143
00000000: f6f9 0bbe db99 20be 33bd 483d 96bf c83b
00000010: 1236 f3bb 723b 0f3d 07d0 06bc 46ef 62bd
00000020: 7589 0080 397b 0180 5354 0000 ed65 0080
00000030: db0d 0000 9bc5 0080 7e9b 0000 36ca 730d
00000040: cf86 0000 e403 0080 59bb 0080 5bc6 0000
00000050: 550c 0080 78c9 0080 5344 0080 859d 5b14
00000060: a261 e2bc 852e 18bd 570f 90be 7fc5 0a3d
00000070: b584 debc 64db 493d 5a2c 543c bea3 c93b
00000080: 5e41 26bc bbf9 4d3e cbc1 20bd 57d7 b8bb
00000090: f39c 9e3d 7005 98bd 8481 243d 643b 1fbd
000000a0: ce8b ff3d 530c 3e3d b405 cabc a243 853d
000000b0: 3ca6 42bd fd13 013e 3932 293c 8f7f 14bd
000000c0: d3ce 7cbd fa71 f1bc ae20 aabd f713 553e
000000d0: 73fa 71bd 2a4d 3dbd e184 39bd c086 25bd
000000e0: 7226 fc3d 75f9 7b3b 1e27 15bd 41e7 6cbb
000000f0: 8b8a 2c3d 46a6 93bd 7685 2f3c 78ec 06be

DB_2.DB.0.weight f4 [24, 8, 1, 1]
-0.03725033 0.011402386 0.023447907 -0.043702032 0.088336475 -0.045607943 0.09710022 0.08951791
-0.07991184 -0.013971625 -0.036338143 0.16718048 -0.15583594 -0.054502785 0.04651843 0.050160334
0.030056307 0.047559183 -0.061439328 0.1125463 -0.059504203 -0.06389297 -0.08056486 -0.15363067
0.06791579 -0.07731472 -0.003281485 0.0465013 -0.16776834 -0.068291254 -0.036322597 -0.030147072
-0.050167665 -0.098624095 -0.040342763 -0.0142524885 0.07009618 -0.064975336 -0.033517014 0.063978024
0.16536845 -0.21480986 0.032438852 -0.008921322 -0.01601855 -0.064721234 0.025606416 0.0048442814
-0.10036651 -0.07316213 0.06281095 0.016101833 0.09480848 -0.06638462 0.12433574 -0.17227703
-0.043569736 -0.038717326 0.11179733 0.1236318 -0.03465741 -0.026410043 -0.12441105 0.021436166
-0.0075705387 -0.06355765 0.17909935 -0.1603677 -0.059144203 0.03899234 -0.06478977 0.0013158573
5.5960268e-06 -6.0881496e-07 -4.4399685e-06 2.7180288e-06 -7.3801144e-05 -4.4780978e-11 1.9805098e-05 4.1504645e-05
-0.19744796 0.02659891 0.027510379 0.0076249763 0.08772638 0.013443602 0.0983763 -0.09330572
0.03902159 0.030191276 0.09116955 0.18500116 0.0011256341 0.012574297 -0.010713301 0.028033644
0.043786887 0.07759792 0.1288909 -0.096481234 0.21088298 -0.09116037 -0.015291354 0.03890894
0.009996318 0.027869854 0.017272037 -0.040079664 0.07532726 -0.0383825 -0.13659601 -0.15148912
0.12710479 -0.028821526 -0.091592856 0.07552918 0.016588349 0.020746069 -0.11838049 -0.092652075
0.033390492 -0.031509224 -0.09707958 -0.06688233 -0.011778294 0.011101262 0.13313103 -0.02361046
-3.6861066e-16 -5.3863594e-18 -6.142752e-25 -1.5881357e-20 -2.0495876e-21 -2.385883e-36 -2.6265279e-21 -1.0009833e-19
-0.0633707 -0.022044323 0.023647066 0.012041286 -0.20206183 0.009706319 -0.005747578 -0.0064348816
0.0602629 -0.05862861 0.024852991 -0.1259896 -0.026548326 0.06800178 0.07387975 0.18774734
-0.0049890336 0.009341957 0.041874666 -0.06584291 -0.15782739 0.017256353 0.029549638 -0.0135042835
0.03923815 0.059484523 -0.1150745 -0.056875344 -0.0069179805 0.04909511 0.115456946 0.02728376
-5.3335e-40 -5.63249e-40 -5.31992e-40 -6.2551e-41 -1.6063e-41 -5.5941e-41 -1.436e-42 5.42426e-40
-0.07449731 0.062811844 -0.06767768 -0.0113814445 0.024746314 0.026827095 0.11552543 0.018906297
-0.13576189 0.092754506 0.10722061 -0.04589034 -0.005909371 -0.07972389 0.09238597 0.06914626
00000000: cd93 18bd 13d1 3a3c d315 c03c e700 33bd
00000010: c1e9 b43d 65cf 3abd 7bdc c63d 2a55 b73d
00000020: d2a8 a3bd 3ee9 64bc 4ed7 14bd 5c31 2b3e
00000030: 7593 1fbe 503e 5fbd 1c8a 3e3d ec74 4d3d
00000040: a538 f63c 6bcd 423d cea7 7bbd ad7e e63d
00000050: aeba 73bd 51da 82bd 30ff a4bd 5c51 1dbe
00000060: 6f17 8b3d 2e57 9ebd 2f0e 57bb 2678 3e3d
00000070: 77cb 2bbe 49dc 8bbd 01c7 14bd fef6 f6bc
00000080: 9c7c 4dbd 6efb c9bd 743e 25bd 4583 69bc
00000090: 968e 8f3d ca11 85bd 2349 09bd e906 833d
000000a0: 5956 293e 1ef7 5bbe 9ade 043d bd2a 12bc
000000b0: 5639 83bc 918c 84bd 8cc4 d13c c7bc 9e3b
000000c0: f58c cdbd 07d6 95bd 07a3 803d fee7 833c
000000d0: f32a c23d a9f4 87bd bda3 fe3d 6469 30be
000000e0: 2e76 32bd 0f96 1ebd 00f6 e43d ab32 fd3d
000000f0: eef4 0dbd e059 d8bc 38cb febd e69a af3c
00000100: 4812 f8bb 832a 82bd d265 373e 6e37 24be
00000110: 3141 72bd 6fb6 1f3d 80b0 84bd d878 ac3a
00000120: 81c5 bb36 726d 23b5 0afb 94b6 6167 3636
00000130: b0c5 9ab8 e6f2 44ae 2023 a637 4615 2e38
00000140: cc2f 4abe f5e5 d93c 725d e13c f0da f93b
00000150: e3a9 b33d 8e42 5c3c 8379 c93d 1217 bfbd
00000160: 1ad5 1f3d b253 f73c 1ab7 ba3d f270 3d3e
00000170: 038a 933a 6d04 4e3c d786 2fbc d0a6 e53c
00000180: e159 333d a9eb 9e3d fafb 033e f497 c5bd
00000190: b5f1 573e 4ab2 babd 9688 7abc fb5e 1f3d
000001a0: 99c7 233c 524f e43c 167e 8d3c 932a 24bd
000001b0: 2e45 9a3d f836 1dbd d3df 0bbe f71f 1bbe
000001c0: c227 023e 1f1b ecbc 0995 bbbd 0baf 9a3d
000001d0: 4ae4 873c a9f3 a93c 7871 f2bd 5fc0 bdbd
000001e0: 78c4 083d d10f 01bd a9d1 c6bd 9af9 88bd
000001f0: bff9 40bc 11e2 353c 8053 083e b96a c1bc
00000200: 557d d4a5 bab8 c6a2 e51b 3e97 c4fe 959e
00000210: cadc 1a9d eef7 4a84 7074 469d ba59 ec9f
00000220: 7fc8 81bd 4c96 b4bc 7eb7 c13c d048 453c
00000230: 4ce9 4ebe 4107 1f3c 2e56 bcbb b3db d2bb
00000240: 3bd6 763d 8e24 70bd 8098 cb3c 6b03 01be
00000250: e07b d9bc 8444 8b3d 444e 973d d740 403e
00000260: 0c7b a3bb 020f 193c c584 2b3d a6d8 86bd
00000270: 819d 21be 325d 8d3c 1512 f23c 1241 5dbc
00000280: 2fb8 203d 0ba6 733d 2eac ebbd 1ff6 68bd
00000290: 3ab0 e2bb f417 493d b174 ec3d 3182 df3c
000002a0: c3ce 0580 1c22 0680 faca 0580 5eae 0080
000002b0: c72c 0080 f19b 0080 0104 0080 10e8 0500
000002c0: 0c92 98bd 7fa3 803d 989a 8abd 3d79 3abc
000002d0: c8b8 ca3c 7fc4 db3c 9998 ec3d 61e1 9a3c
000002e0: 2a05 0bbe 13f6 bd3d 7b96 db3d 82f7 3bbd
000002f0: 66a3 c1bb 4746 a3bd db34 bd3d 8e9c 8d3d

CB_2.conv_1x1_down.weight f4 [6, 8, 1, 1]
0.10991614 0.13271123 -0.0053396407 0.11431023 -0.11400259 -0.007854382 -0.024197146 -0.025771344
0.0043505025 0.0052566663 0.0022375574 0.009049978 0.00692572 0.011600052 0.008630808 0.0049664904
-0.05030362 -0.029342493 0.051351544 0.014520735 -0.12657434 -0.038058966 -0.017300716 0.08630759
0.00058240735 0.003195391 0.0024467495 0.0017528386 0.0031381147 0.0027131436 0.0049535097 -0.003921679
0.058927577 0.021764738 0.06447982 -0.05999876 0.025587725 -0.019076947 -0.19353735 0.03878746
-0.09585063 0.04145831 -0.0025610202 0.02331361 -0.0516771 -0.07456252 -0.010479211 -0.08001647
00000000: b71b e13d 74e5 073e 27f8 aebb 7b1b ea3d
00000010: 317a e9bd aaaf 00bc 1839 c6bc 6d1e d3bc
00000020: a98e 8e3b 1d40 ac3b fca3 123b 5c46 143c
00000030: 26f1 e23b 250e 3e3c 3c68 0d3c f1bd a23b
00000040: 2b0b 4ebd ab5f f0bc ff55 523d 60e8 6d3c
00000050: b49c 01be b8e3 1bbd 3bba 8dbc 09c2 b03d
00000060: b2ac 183a c469 513b a559 203b 81bf e53a
00000070: d4a8 4d3b ffce 313b 0d51 a23b 6e81 80bb
00000080: 0b5e 713d f74b b23c ff0d 843d 43c1 75bd
00000090: 599d d13c 4247 9cbc a82e 46be 9adf 1e3d
000000a0: 564d c4bd 30d0 293d cad6 27bb 2ffc be3c
000000b0: 5eab 53bd 3cb4 98bd ffb0 2bbc addf a3bd

CB_2.conv_3x3_1.weight f4 [6, 1, 3, 3]
-0.043064043 0.020808373 0.020295875 -0.015984941 0.049226042 0.047607277 -0.03839032 -0.0014459259
-0.016021494 -0.0012198255 6.315719e-05 -0.00033429282 -0.00066883146 0.0006234969 0.00034054424 -0.0003533274
0.00087351905 0.00093506504 -0.0026709875 0.009896413 0.03345086 0.0034432276 0.009539345 0.031212028
-0.0022782264 -0.00090727187 0.020076614 -0.0018398054 -0.0013558272 -0.0013331992 -0.001814114 -0.0015336671
-0.0014155455 -0.0018134663 -0.0015490397 -0.0014757635 -0.057483405 0.013113362 -0.03503528 -0.035591614
-0.006461929 0.03267739 -0.09148176 -0.003459136 -0.0140419975 0.013124554 0.0135175185 0.017723233
0.0050844946 0.0038955535 0.011482487 -0.0025169996 -0.006881215 0.0027261998
00000000: ec63 30bd 5276 aa3c 8943 a63c daf2 82bc
00000010: 3fa1 493d d9ff 423d 2b3f 1dbd 3985 bdba
00000020: 823f 83bc 8de2 9fba 4273 8438 0644 afb9
00000030: 8554 2fba 2b72 233a 138b b239 cd3e b9b9
00000040: dffc 643a 271f 753a bc0b 2fbb 9124 223c
00000050: c503 093d c6a7 613b ea4a 1c3c 5eb0 ff3c
00000060: 4c4e 15bb fcd5 6dba b677 a43c a025 f1ba
00000070: 03b6 b1ba bebe aeba 91c7 edba 5405 c9ba
00000080: d389 b9ba d5b1 edba 2609 cbba 686e c1ba
00000090: b873 6bbd 6dd9 563c 2781 0fbd 83c8 11bd
000000a0: 97be d3bb bad8 053d ca5a bbbd acb2 62bb
000000b0: 6810 66bc 5f08 573c 9578 5d3c 5030 913c
000000c0: d59b a63b 8b4c 7f3b 0b21 3c3c 3ff4 24bb
000000d0: d17b e1bb 0baa 323b

CB_2.conv_3x3_2.weight f4 [6, 1, 3, 3]
-0.025329843 0.018794032 0.036764864 -0.01136472 0.055380087 0.0405579 -0.02318119 -0.005748159
-0.044657554 -0.00078888494 0.00033219325 -0.0007074202 -0.0001121611 0.00086816895 -0.00044830173 0.00082935207
0.0018256191 0.0007696281 0.009410313 0.007024251 0.027883949 0.0037319628 0.013214584 0.017207347
-0.004539298 -0.0014994736 0.010557958 -0.0013471758 -0.0011675874 -0.0013087146 -0.0014259137 -0.0012989661
-0.0016055659 -0.0015365725 -0.0015364401 -0.0017668469 0.018804561 -0.034180176 -0.05778536 0.0024520266
-0.008345729 0.024061913 -0.12983255 -0.04452031 0.018003706 0.018013205 0.020540632 0.023556188
0.007371785 0.008943918 0.015827496 0.018119173 0.017025482 0.015299951
00000000: 8880 cfbc f1f5 993c c196 163d 1733 3abc
00000010: 3bd6 623d 0a20 263d 7be6 bdbc 0d5b bcbb
00000020: d7ea 36bd 2ccd 4eba 392a ae39 2a72 39ba
00000030: 0838 ebb8 d595 633a 0a0a ebb9 e068 593a
00000040: 9d49 ef3a dec0 493a b72d 1a3c b02b e63b
00000050: e16c e43c f293 743b fc81 583c 6cf6 8c3c
00000060: 64be 94bb fc89 c4ba 49fb 2c3c b893 b0ba
00000070: bb09 99ba 2d89 abba b9e5 baba 1242 aaba
00000080: da71 d2ba d166 c9ba 6062 c9ba 8b95 e7ba
00000090: 060c 9a3c 8300 0cbd 57b0 6cbd 2eb2 203b
000000a0: 86bc 08bc 7d1d c53c d3f2 04be ee5a 36bd
000000b0: 827c 933c 6e90 933c d444 a83c e8f8 c03c
000000c0: 048f f13b 8389 123c aaa8 813c a96e 943c
000000d0: 0679 8b3c a5ac 7a3c

CB_2.conv_3x3_3.weight f4 [6, 1, 3, 3]
0.01835558 0.035194453 -0.02371595 -0.035613168 0.061595786 0.0015199977 -0.06786814 -0.008994492
-0.020925354 -0.001921393 -0.0014707579 -0.0010488968 0.0003991043 0.00025581726 0.00047452698 0.002035908
0.0014931092 0.0026858156 0.02999897 0.009993405 0.023782143 -0.0057757325 0.0008734878 -0.019178217
-0.00028317666 -0.016086197 -0.0011679784 -0.0009041216 -0.0010084824 -0.0015362332 -0.0011069478 -0.00088311755
-0.0015714671 -0.0010505724 -0.0007301355 -0.001568115 0.029426327 -0.17260179 -0.05454002 -0.13902925
0.00027920742 -0.07805212 -0.0759044 -0.045587923 0.024775222 -0.0155166285 0.0057054907 -0.003499592
-0.019172743 -0.0015107124 0.003581455 0.0036192627 0.022904275 0.009448289
00000000: 715e 963c 0f28 103d f447 c2bc 1ddf 11bd
00000010: dd4b 7c3d a93a c73a 74fe 8abd a25d 13bc
00000020: a66b abbc 40d7 fbba 72c6 c0ba 237b 89ba
00000030: df3e d139 361f 8639 efc9 f839 de6c 053b
00000040: 6eb4 c33a 8204 303b 66c0 f53c 61bb 233c
00000050: c5d2 c23c 5b42 bdbb c6fa 643a a31b 9dbc
00000060: 5477 94b9 33c7 83bc da16 99ba 9302 6dba
00000070: 0e2f 84ba 6f5b c9ba 0117 91ba 0481 67ba
00000080: b0f9 cdba 5cb3 89ba 9066 3fba 3589 cdba
00000090: 7b0f f13c 86be 30be 5b65 5fbd af5d 0ebe
000000a0: 9662 9239 cad9 9fbd c473 9bbd 67ba 3abd
000000b0: 68f5 ca3c 7539 7ebc 20f5 ba3b 6959 65bb
000000c0: 2810 9dbc 1903 c6ba d8b6 6a3b 2731 6d3b
000000d0: bfa1 bb3c ffcc 1a3c

CB_2.conv_3x3_4.weight f4 [6, 1, 3, 3]
-0.024648724 -0.09229115 -0.02063834 -0.08595987 0.030436901 -0.08743391 0.0035742274 -0.05231086
-0.033541016 -0.0012453053 -0.0010608893 -0.0017142579 -0.0006343563 -0.00089342194 -0.0015781728 -0.0007630592
-0.0005370422 -0.0010893646 -0.027713725 -0.0017797888 -0.0024605212 -0.028050624 -0.011965589 -0.03020181
-0.00054517604 -0.024848998 -0.021070946 -0.00019016363 0.0004455895 -0.00077903585 -0.000105886975 -0.00019704245
-0.0007988158 -0.00040350246 -0.00013687645 -0.001215235 0.0342491 -0.10934136 -0.00042717016 -0.11121435
0.032109015 -0.01708828 -0.00059815653 -0.028916014 -0.0065565025 0.013583887 0.008751805 -0.00084389537
0.0118331015 -0.008393038 -0.0007684173 0.0052770735 0.0072397566 -0.012721284
00000000: 1fec c9bc 2403 bdbd bc11 a9bc ba0b b0bd
00000010: cf56 f93c 8d10 b3bd 963d 6a3b ea43 56bd
00000020: 4e62 09bd 8339 a3ba 8a0d 8bba f3b0 e0ba
00000030: ee4a 26ba 8834 6aba b1da ceba 0908 48ba
00000040: 4bc8 0cba 03c9 8eba e507 e3bc cd47 e9ba
00000050: b240 21bb 6cca e5bc 510b 44bc c969 f7bc
00000060: 25ea 0eba 2090 cbbc fa9c acbc a966 47b9
00000070: 039e e939 3638 4cba a30f deb8 2e9d 4eb9
00000080: 9f67 51ba 2f8d d3b9 7e86 0fb9 8548 9fba
00000090: c948 0c3d 5dee dfbd cff5 dfb9 59c4 e3bd
000000a0: be84 033d b8fc 8bbc 9bcd 1cba 47e1 ecbc
000000b0: eed7 d6bb f48e 5e3c bb63 0f3c dc38 5dba
000000c0: a0df 413c f482 09bc 9d6f 49ba 4deb ac3b
000000d0: 7b3b ed3b ef6c 50bc

CB_2.attention.weight f4 [4, 6, 1, 1]
0.001257648 -0.0011470941 0.00042621925 -0.00042598762 0.001979202 0.0012104235 -0.009110556 -0.0010476649
-0.0038695487 -0.00041894545 -0.002875289 -0.00073583925 0.0016638351 -0.0028002756 -0.0028467802 -0.00061406865
0.0034834298 -0.0028911 0.003613034 0.00012223594 0.0027645952 3.5353958e-06 0.0063883406 0.0012487554
00000000: aad7 a43a 175a 96ba 2e76 df39 1757 dfb9
00000010: 80b5 013b 13a7 9e3a 7144 15bc cd51 89ba
00000020: 4198 7dbb e8a5 dbb9 586f 3cbb 56e5 40ba
00000030: 0b15 da3a d484 37bb 0c91 3abb 73f9 20ba
00000040: 414a 643b 9c78 3dbb a7c8 6c3b 762c 0039
00000050: 362e 353b a341 6d36 4955 d13b 47ad a33a

stage2_CB.0.conv_1x1_down.weight f4 [6, 24, 1, 1]
0.037845857 -0.009240798 -0.00525614 -0.027235998 -0.044139948 -0.024288662 0.03143964 0.12524985
0.09195473 0.016021805 0.0571364 0.04695112 0.0064016217 -0.030454759 0.019766303 0.009481556
0.05570726 0.07297252 0.121995844 -0.0025285126 0.12192343 -0.062298026 -0.027766446 -0.030367002
-0.055899974 0.025463862 0.017062481 -0.028974669 0.0054327627 -0.032219227 0.02805014 -0.021214861
-0.014543529 0.0037790353 -0.040188838 0.024864463 -0.0077906772 0.048700586 -0.026202913 -0.08722374
-0.015179508 -0.0019848135 0.06961364 -0.019525958 -0.062339585 -0.019311562 -0.058224205 -0.023283474
0.006124511 -0.009916559 -0.01374591 -0.028977375 -0.018684272 0.072348714 0.09025499 0.10291789
-0.04464111 0.026559422 -0.03024801 -0.07969337 -0.029239245 0.04787058 -0.013947421 0.10412453
0.0028179735 0.030831689 -0.06444131 -0.009019386 0.056403663 0.008827893 0.07635143 0.032968123
-0.11472722 -0.02675227 -0.0060021873 0.01918646 0.06574668 0.034352217 -0.06934783 0.169546
0.07074296 -0.0125117125 -0.05538769 -0.087317064 0.06850164 0.001631442 0.056776777 -0.041683063
-0.053957727 0.015625387 0.00044939606 0.050996393 0.09135205 -0.024279015 -0.048129953 0.034093723
0.0141079 -0.035078265 0.08102947 0.022475386 0.07066414 -0.10352007 0.06805427 0.041255824
-0.096458316 -0.01109725 -0.036511794 0.096538864 -0.14424598 0.10819714 -0.06989729 0.14774312
-0.044919956 0.005928949 0.115946956 0.0016939747 0.02598215 0.039474998 -0.0011220495 0.049645446
-0.005948953 0.003795246 0.019274006 -0.0153604 0.0022367153 -0.011219771 -0.008398146 -0.0034297823
-0.0049515683 -0.004434049 -0.003986897 -0.005487279 -0.0028625347 -0.0013126842 0.0026080043 0.009590528
-0.0061027035 -0.008824364 0.004090192 -0.004436417 0.008401564 -0.0005174966 -0.006003832 -0.0030637553
00000000: 4204 1b3d b766 17bc b33b acbb 071e dfbc
00000010: 17cc 34bd 04f9 c6bc dac6 003d 7f41 003e
00000020: c352 bc3d 2940 833c dc07 6a3d d14f 403d
00000030: b2c4 d13b 427c f9bc f1ec a13c 8758 1b3c
00000040: 4c2d 643d 9e72 953d f5d8 f93d 67b5 25bb
00000050: feb2 f93d 372c 7fbd 7576 e3bc 38c4 f8bc
00000060: 5ff7 64bd 9799 d03c 9ec6 8b3c 495c edbc
00000070: 5105 b23b 4ff8 03bd 68c9 e53c caca adbc
00000080: fb47 6ebc b1a9 773b 0d9d 24bd 8fb0 cb3c
00000090: f048 ffbb 447a 473d 7ea7 d6bc 5ca2 b2bd
000000a0: 79b3 78bc a513 02bb 9991 8e3d e7f4 9fbc
000000b0: cb57 7fbd 4833 9ebc 817c 6ebd fcbc bebc
000000c0: 1fb0 c83b 1079 22bc 8636 61bc f661 edbc
000000d0: c20f 99bc 902b 943d 9cd7 b83d 9dc6 d23d
000000e0: 99d9 36bd 2593 d93c adca f7bc 4736 a3bd
000000f0: 2487 efbc f113 443d b983 64bc 3e3f d53d
00000100: c0ad 383b bd92 fc3c cef9 83bd 0cc6 13bc
00000110: 8707 673d dea2 103c 235e 9c3d 9509 073d
00000120: 1bf6 eabd 9427 dbbc ffad c4bb ec2c 9d3c
00000130: 32a6 863d e9b4 0c3d 3c06 8ebd 779d 2d3e
00000140: afe1 903d edfd 4cbc 34de 62bd 4ad3 b2bd
00000150: 964a 8c3d 1cd6 d53a c48e 683d dcbb 2abd
00000160: c702 5dbd d000 803c eb9c eb39 98e1 503d
00000170: c916 bb3d c9e4 c6bc ea23 45bd dca5 0b3d
00000180: d224 673c 3aae 0fbd c7f2 a53d 4d1e b83c
00000190: 5cb8 903d 5502 d4bd 0a60 8b3d defb 283d
000001a0: f08b c5bd 3dd1 35bc 648d 15bd 2bb6 c53d
000001b0: 38b5 13be 7696 dd3d 4f26 8fbd f949 173e
000001c0: fdfd 37bd a147 c23b 9975 ed3d 5c08 de3a
000001d0: 85d8 d43c 89b0 213d bc11 93ba 0659 4b3d
000001e0: 6fef c2bb a9b9 783b 85e4 9d3c 30aa 7bbc
000001f0: db95 123b 21d3 37bc 6198 09bc 33c6 60bb
00000200: c440 a2bb 804b 91bb 84a4 82bb a2ce b3bb
00000210: 5d99 3bbb 5f0e acba 0deb 2a3b 9721 1d3c
00000220: 30f9 c7bb 1194 10bc 0407 863b 5d5f 91bb
00000230: b7a6 093c 9ca8 07ba cbbb c4bb 49c9 48bb

stage2_CB.0.conv_3x3_1.weight f4 [6, 1, 3, 3]
-0.041801993 -0.04471421 -0.06503097 -0.013549145 0.03444164 0.021372462 -0.019796344 -0.011871077
0.02808364 0.04045483 -0.0056362585 0.01296609 -0.0023036764 -0.02523633 -0.034047123 -0.032525953
-0.054463577 -0.049526677 0.005236049 0.0050172606 0.009194325 -0.008597992 -0.003411571 0.0011029359
-0.004998447 0.005032997 0.0012394107 -0.03719278 -0.079186 -0.04646209 -0.023771401 0.0023125852
0.07683739 0.017419765 0.035092812 -0.00071040104 -0.062276542 -0.006815402 -0.10307572 -0.041945826
0.029114237 -0.015160461 -0.15920067 -0.03857142 -0.10078776 -0.010438998 -0.01180019 -0.015871905
-0.0087652495 -0.01018277 -0.009521859 -0.008612135 -0.005091921 -0.012747994
00000000: 9138 2bbd 3f26 37bd f52e 85bd 3cfd 5dbc
00000010: ad12 0d3d 4d15 af3c f12b a2bc e87e 42bc
00000020: a90f e63c f7b3 253d 5db0 b8bb b96f 543c
00000030: 47f9 16bb 6cbc cebc ff74 0bbd ef39 05bd
00000040: 3315 5fbd 7cdc 4abd 2a93 ab3b d567 a43b
00000050: cba3 163c 98de 0cbc aa94 5fbb 6390 903a
00000060: 03ca a3bb d7eb a43b b973 a23a 7557 18bd
00000070: 452c a2bd 084f 3ebd 3ebc c2bc be8e 173b
00000080: ec5c 9d3d e5b3 8e3c 7bbd 0f3d 353a 3aba
00000090: b015 7fbd bc53 dfbb 5d19 d3bd 63cf 2bbd
000000a0: fb80 ee3c 9563 78bc 8005 23be 11fd 1dbd
000000b0: d069 cebd 5508 2bbc 9655 41bc cc05 82bc
000000c0: 1f9c 0fbc a2d5 26bc 9201 1cbc ea19 0dbc
000000d0: 21da a6bb f6dc 50bc

stage2_CB.0.conv_3x3_2.weight f4 [6, 1, 3, 3]
0.032601126 -0.010775913 -0.008533428 -0.023643782 0.020696675 0.011023723 0.013298153 -0.13040781
-0.07591801 0.017102186 0.008166387 0.003142083 0.01078435 -0.016535206 -0.042891175 -0.0100517785
-0.022480298 -0.020683916 -0.038983926 -0.004050538 -0.0260451 0.025277432 0.002144221 -0.017511541
-0.037629314 -0.00042115615 0.07259744 -0.04423216 -0.06516946 -0.03846869 -0.014209557 0.022654323
-0.018554155 -0.088431336 -0.043309975 -0.0989669 -0.10491159 -0.048602212 0.0037579562 -0.08720667
0.009299544 -0.04099841 -0.022411186 0.026832012 -0.06027472 -0.002379064 -0.0057268324 -0.0032562981
-0.009171206 -0.009103459 -0.00849996 -0.007677181 -0.00676588 -0.00962102
00000000: c288 053d 748d 30bc cbcf 0bbc 9bb0 c1bc
00000010: 138c a93c d89c 343c 7fe0 593c a089 05be
00000020: e77a 9bbd e219 8c3c 4fcc 053c 68eb 4d3b
00000030: d8b0 303c d774 87bc a8ae 2fbd 37b0 24bc
00000040: 9a28 b8bc 5171 a9bc 9cad 1fbd 60ba 84bb
00000050: 895c d5bc 9e12 cf3c 0f86 0c3b 5d74 8fbc
00000060: 3221 1abd 9fce dcb9 f7ad 943d c82c 35bd
00000070: 9177 85bd 5891 1dbd 34cf 68bc 8f95 b93c
00000080: e2fe 97bc 7d1b b5bd cd65 31bd 28af cabd
00000090: e3db d6bd 1d13 47bd 0b48 763b 6999 b2bd
000000a0: 1d5d 183c f3ed 27bd aa97 b7bc cfce db3c
000000b0: a0e2 76bd 12ea 1bbb 27a8 bbbb 9e67 55bb
000000c0: d342 16bc ad26 15bc 6b43 0bbc dd90 fbbb
000000d0: 51b4 ddbb 7ca1 1dbc

stage2_CB.0.conv_3x3_3.weight f4 [6, 1, 3, 3]
0.06579225 0.004278166 -0.07402839 -0.046857003 0.025656907 -0.023129668 -0.010062487 0.021340335
0.0040461193 -0.0032624379 0.02069224 0.0097586755 0.0050622975 -0.025302699 -0.026463464 0.0009753294
0.011776373 -0.008636742 0.0218151 -0.027504321 0.029050028 -0.017278427 -0.012350152 -0.022233723
-0.017440468 -0.02597779 -0.0071764784 -0.044574685 -0.100207955 -0.049663346 -0.034498982 0.030309351
-0.052141815 0.007460772 -0.056561787 -0.057491813 0.0049122535 0.06261015 0.026887838 0.1307797
0.01731921 0.1345101 0.0579002 0.0139288 0.028083757 -0.015151551 -0.010111329 -0.0035194822
-0.0049377508 -0.005555027 -0.00012297225 -0.010081203 -0.0050702994 0.0001529649
00000000: 16be 863d dc2f 8c3b 329c 97bd 21ed 3fbd
00000010: 6f2e d23c 6e7a bdbc 21dd 24bc edd1 ae3c
00000020: 4f95 843b a0ce 55bb c682 a93c dae2 1f3c
00000030: a1e1 a53b 9b47 cfbc e8c9 d8bc 40ad 7f3a
00000040: b0f1 403c 1f81 0dbc 95b5 b23c be50 e1bc
00000050: 53fa ed3c 7d8b 8dbc 4b58 4abc 7f23 b6bc
00000060: 50df 8ebc 60cf d4bc aa28 ebbb f293 36bd
00000070: d439 cdbd cb6b 4bbd ce4e 0dbd 514b f83c
00000080: a892 55bd 7e79 f43b 55ad 67bd 897c 6bbd
00000090: f8f6 a03b c039 803d e243 dc3c 1deb 053e
000000a0: 04e1 8d3c 04bd 093e c328 6d3d 9f35 643c
000000b0: e80f e63c 363e 78bc fda9 25bc 1da7 66bb
000000c0: dbcc a1bb f206 b6bb 1df2 00b9 a12b 25bc
000000d0: c124 a6bb 3465 2039

stage2_CB.0.conv_3x3_4.weight f4 [6, 1, 3, 3]
0.07709504 0.03359109 0.03971877 -0.03724869 0.007123762 -0.049990088 -0.036885437 0.014012994
-0.012689551 0.013491772 -0.009998722 -0.00050985155 0.0017275683 -0.01955162 -0.013081257 -0.009672968
-0.009611203 0.00023736132 -0.01548138 -0.0066954307 -0.0071792644 -0.0072739488 -0.017510694 -0.011003162
-0.022278592 -0.0056621437 -0.011970056 -0.03928908 -0.043913618 -0.0067630657 -0.038314387 0.023888964
0.018786123 0.03601395 -0.046437096 -0.03646814 0.04462285 0.091008574 -0.039864045 0.051984802
0.020816334 0.13106424 -0.013031767 0.07888863 0.10421017 -0.0019852999 -0.010467514 -0.0033860172
-0.006794486 -0.004887516 -0.0030808551 -0.001568163 0.00019859505 0.00027732816
00000000: 01e4 9d3d d096 093d 26b0 223d 1592 18bd
00000010: 726e e93b 68c2 4cbd 2f15 17bd c296 653c
00000020: d6e7 4fbc 980c 5d3c aed1 23bc 8fa7 05ba
00000030: 936f e23a b82a a0bc c552 56bc 5e7b 1ebc
00000040: 4f78 1dbc 32e4 7839 9da5 7dbc 5865 dbbb
00000050: 0940 ebbb 4e5a eebb 9672 8fbc 9b46 34bc
00000060: 9881 b6bc 8189 b9bb 0e1e 44bc 96ed 20bd
00000070: c4de 33bd b59c ddbb 8cef 1cbd cab2 c33c
00000080: 5be5 993c 5d83 133d d334 3ebd 9e5f 15bd
00000090: 73c6 363d b462 ba3d 7b48 23bd 04ee 543d
000000a0: 0487 aa3c b435 063e 3183 55bc 5d90 a13d
000000b0: 246c d53d ce1b 02bb f07f 2bbc f1e7 5dbb
000000c0: 48a4 debb 7527 a0bb 2ce8 49bb d28a cdba
000000d0: f43d 5039 5b66 9139

stage2_CB.0.attention.weight f4 [4, 6, 1, 1]
0.0012657564 0.0003610304 0.0007128768 -0.0002554552 0.0014997876 -0.0001979374 -3.9270155e-05 0.0046693464
-0.0005012491 -0.0008614685 0.0037150509 -0.0023434414 0.0023591947 3.030352e-05 -4.8667334e-05 0.0029709246
-0.002722448 0.00064225914 -5.0786773e-05 0.0007704192 -0.002282581 8.093662e-05 -0.0027958092 0.0004588078
00000000: bde7 a53a ae48 bd39 5ae0 3a3a 9eee 85b9
00000010: 8594 c43a 6b8d 4fb9 02b6 24b8 5101 993b
00000020: 4266 03ba 2cd4 61ba 3678 733b 6c94 19bb
00000030: b89c 1a3b 5034 fe37 2720 4cb8 d8b3 423b
00000040: 196b 32bb 485d 283a e203 55b8 f5f5 493a
00000050: 5b97 15bb 84bc a938 e539 37bb 248c f039

stage2_CB.1.conv_1x1_down.weight f4 [6, 24, 1, 1]
-0.006659152 -0.15037163 -0.04419381 -0.012976772 -0.041209724 0.029926477 -0.013409528 -0.07124578
-0.01499813 0.03233336 0.10309859 0.080564596 -0.019774068 -0.039664865 0.06497229 -0.08761756
-0.009453281 -0.034581847 -0.03613514 0.014557405 -0.0037098834 -0.09657056 0.026104717 -0.04531816
-0.13460656 -0.038461108 -0.16031858 0.08047903 0.11183913 -0.035373993 -0.09025917 -0.060687415
-0.046585206 0.03367906 -0.009366398 0.14661583 -0.028934386 0.048099183 -0.073537424 -0.045473233
-0.010006717 -0.04645298 -0.04655053 0.0055655665 -0.028440768 -0.0057592397 0.022314401 -0.02599954
-0.005872141 0.11309498 -0.044358432 -0.006690064 -0.021868788 -0.026527457 -0.19401868 0.047382224
0.031152053 -0.09203122 -0.061300483 0.03154799 0.046727516 0.0031253237 -0.07610222 -0.0081082145
-0.05084418 0.011382391 -0.061299674 -0.06429444 0.041960325 -0.047642414 -0.07934873 -0.014881483
0.00065770745 0.06589579 0.17318103 -0.063579194 0.052128747 0.069757074 0.13067979 -0.030459868
-0.044465292 -0.025464311 -0.09848826 -0.06604024 -0.038756903 -0.053705536 -0.11035293 -0.002614925
0.043053903 -0.03727763 -0.120954305 0.044681773 -0.07031071 0.006508317 0.032379393 0.08145273
0.025132442 0.025521463 0.026223129 0.052989706 0.048327804 0.043339327 0.043582585 -0.10549959
-0.07582915 0.03221969 0.09568915 -0.026504746 0.08415428 -0.0058561885 -0.038201816 0.030159846
-0.016604781 0.059786182 0.10868836 -0.10356806 -0.059894748 -0.018934112 0.14749746 0.052667502
0.20727953 -0.036427148 -0.10163006 -0.0068751373 -0.041257992 -0.038374633 -0.1021182 -0.038747385
-0.05310683 -0.01829837 0.108061604 0.015840633 0.039738093 0.037059236 -0.05663509 -0.12339785
0.021512948 -0.03590849 -0.03491698 0.07805174 -0.049199134 0.1162264 -0.031234752 -0.047192
00000000: 0435 dabb 05fb 19be 9204 35bd 879c 54bc
00000010: 87cb 28bd 5f28 f53c a3b3 5bbc 4fe9 91bd
00000020: b7ba 75bc fc6f 043d 5b25 d33d 0dff a43d
00000030: 3afd a1bc a077 22bd 3110 853d d670 b3bd
00000040: efe1 1abc b2a5 0dbd 7102 14bd 2f82 6e3c
00000050: 8421 73bb c9c6 c5bd 8fd9 d53c 899f 39bd
00000060: 4dd6 09be 6589 1dbd 8e2a 24be 31d2 a43d
00000070: ea0b e53d 52e4 10bd cdd9 b8bd 5e93 78bd
00000080: 21d0 3ebd 0ef3 093d 8575 19bc 7622 163e
00000090: ce07 edbc a603 453d ca9a 96bd 2442 3abd
000000a0: 37f3 23bc 7b45 3ebd c5ab 3ebd 5b5f b63b
000000b0: 9dfc e8bc 01b8 bcbb b1cc b63c fdfc d4bc
000000c0: 176b c0bb 579e e73d 30b1 35bd 5338 dbbb
000000d0: 2c26 b3bc 1c50 d9bc d5ac 46be dd13 423d
000000e0: 9732 ff3c dd7a bcbd 3716 7bbd 7738 013d
000000f0: 5a65 3f3d 3bd2 4c3b 7bdb 9bbd 51d8 04bc
00000100: fd41 50bd 357d 3a3c 5e15 7bbd ceac 83bd
00000110: 97de 2b3d b124 43bd 9681 a2bd 77d1 73bc
00000120: 006a 2c3a 5ff4 863d 5e56 313e cf35 82bd
00000130: f484 553d ccdc 8e3d ecd0 053e f986 f9bc
00000140: 3d21 36bd 889a d0bc 36b4 c9bd 1b40 87bd
00000150: 8fbf 1ebd 56fa 5bbd b800 e2bd 295f 2bbb
00000160: 4a59 303d 6eb0 18bd e4b6 f7bd 3c04 373d
00000170: 10ff 8fbd b843 d53b 41a0 043d b0d0 a63d
00000180: 8de2 cd3c 6312 d13c e3d1 d63c bc0b 593d
00000190: 60f3 453d 9484 313d a783 323d 2b10 d8bd
000001a0: 504c 9bbd cbf8 033d acf8 c33d 7b20 d9bc
000001b0: 1459 ac3d 45e5 bfbb 8279 1cbd c811 f73c
000001c0: c006 88bc 5be2 743d 0198 de3d 7e1b d4bd
000001d0: 3254 75bd b61b 9bbc 9309 173e e1b9 573d
000001e0: 1641 543e a234 15bd 6c23 d0bd d548 e1bb
000001f0: 24fe 28bd b82e 1dbd 5923 d1bd 94b5 1ebd
00000200: 8c86 59bd 77e6 95bc 674f dd3d 37c4 813c
00000210: 69c4 223d 6dcb 173d 32fa 67bd 03b8 fcbd
00000220: ec3b b03c c814 13bd 1b05 0fbd 97d9 9f3d
00000230: 0885 49bd 1b08 ee3d 06e0 ffbc 664c 41bd

stage2_CB.1.conv_3x3_1.weight f4 [6, 1, 3, 3]
-0.10303211 -0.077654146 -0.12776253 -0.014963486 0.0034948147 -0.011626745 -0.07096454 -0.022223335
-0.023907471 -0.17597464 -0.14399315 -0.17961624 -0.015427301 0.0035368635 0.03778379 -0.035051238
-0.040747553 0.025315136 -0.030498542 -0.01159409 -0.05803188 -0.07911014 -0.018313017 -0.0065098125
-0.03235835 -0.015816832 0.08627196 -0.19464648 -0.099926375 -0.09832633 -0.029802702 0.06994424
0.084171094 -0.11114684 -0.03373763 -0.061001882 0.02217793 -0.0334597 -0.028211897 -0.031295862
0.015194626 0.020454628 -0.009985798 -0.040314198 0.014756692 -0.08276694 0.0980135 -0.14367796
-0.12266205 0.016016958 -0.24354433 -0.06838926 0.045776878 -0.18584861
00000000: 8002 d3bd 2309 9fbd 2ed4 02be 6929 75bc
00000010: 4309 653b 1a7e 3ebc db55 91bd b60d b6bc
00000020: 9ad9 c3bc b232 34be f172 13be 52ed 37be
00000030: cac2 7cbc b9ca 673b 2dc3 1a3d e391 0fbd
00000040: e8e6 26bd b061 cf3c 14d8 f9bc 23f5 3dbc
00000050: d6b2 6dbd 7f04 a2bd 2e05 96bc 4450 d5bb
00000060: 308a 04bd 4d92 81bc 5aaf b03d 6851 47be
00000070: 33a6 ccbd 515f c9bd cc24 f4bc ed3e 8f3d
00000080: e561 ac3d f4a0 e3bd 7830 0abd 1cdd 79bd
00000090: 7eae b53c 0a0d 09bd a31c e7bc 1730 00bd
000000a0: e1f2 783c 7790 a73c 799b 23bc 8020 25bd
000000b0: 0dc6 713c b781 a9bd 4dbb c83d 5120 13be
000000c0: 3e36 fbbd ff35 833c af63 79be ab0f 8cbd
000000d0: 8980 3b3d 194f 3ebe

stage2_CB.1.conv_3x3_2.weight f4 [6, 1, 3, 3]
-0.009457568 0.042401 0.029311854 0.04102896 0.04334553 0.035115335 0.05516081 0.09439883
0.02613566 -0.0012319931 -0.0128115 -0.028308172 0.083103366 -0.031217497 0.08353379 -0.04701029
-0.18811683 -0.14260696 -0.0070481175 0.006573618 -0.04910633 0.0061277323 -0.048777517 -0.027543556
0.044962775 -0.019848144 0.07958729 -0.03343263 -0.15620011 -0.024785817 -0.0018465829 -0.010720372
-0.04090947 -0.09415478 -0.071794525 -0.09981506 -0.022355609 0.0044958857 0.012069895 -0.011427464
0.028009538 -0.020938614 0.05634351 -0.042787332 -0.11485198 -0.018794082 -0.018753653 0.06767339
0.00013949831 0.031302243 -0.10077852 -0.021320717 0.048408583 -0.05548448
00000000: eaf3 1abc acac 2d3d 6a1f f03c fc0d 283d
00000010: 158b 313d 19d5 0f3d 4df0 613d 2c54 c13d
00000020: 741a d63c d47a a1ba 53e7 51bc 8ae6 e7bc
00000030: 1932 aa3d d6bb ffbc c413 ab3d dd8d 40bd
00000040: b3a1 40be 8f07 12be e5f3 e6bb 8167 d73b
00000050: b823 49bd 25cb c83b efca 47bd 06a3 e1bc
00000060: e32a 383d 9398 a2bc a9fe a23d a7f0 08bd
00000070: ecf2 1fbe a00b cbbc 0a09 f2ba 80a4 2fbc
00000080: b090 27bd 39d4 c0bd 0209 93bd d76b ccbd
00000090: 1c23 b7bc 3952 933b cfc0 453c 423a 3bbc
000000a0: 4274 e53c 7587 abbc 74c8 663d c541 2fbd
000000b0: 8437 ebbd 0cf6 99bc 43a1 99bc 5998 8a3d
000000c0: 4b46 1239 c836 003d f864 cebd c9a8 aebc
000000d0: 1448 463d b243 63bd

stage2_CB.1.conv_3x3_3.weight f4 [6, 1, 3, 3]
0.024158878 0.028524742 -0.04340241 0.040822223 0.048308816 0.039411813 -0.034682542 0.024997307
0.016534027 2.2939355e-05 -0.059856206 -0.00847657 0.087792344 -0.022483079 0.046056554 -0.021911414
-0.020075632 0.00020330251 0.033453263 0.06839671 0.0073355925 0.011679177 -0.03727545 0.05256688
0.08286287 0.008449713 0.115035065 0.04980965 0.04923133 -0.04872788 -0.0002449393 0.035824668
-0.004402656 -0.009738447 0.020094052 0.026949052 0.023621362 -0.012341993 -0.051837515 -0.04177973
0.005017869 -0.08687648 0.023104254 -0.052514587 -0.03662412 -0.0113544585 0.063797385 -0.028795637
-0.013389481 0.036407523 -0.108599424 -0.005600275 -0.01240105 -0.047307782
00000000: d7e8 c53c b8ac e93c bac6 31bd 3435 273d
00000010: 77df 453d 486e 213d 480f 0ebd 27c7 cc3c
00000020: 5e72 873c e46d c037 c82b 75bd 50e1 0abc
00000030: 79cc b33d 6f2e b8bc cca5 3c3d 917f b3bc
00000040: a775 a4bc 9a2d 5539 4a06 093d 9313 8c3d
00000050: 695f f03b 055a 3f3c 24ae 18bd 5e50 573d
00000060: 02b4 a93d aa70 0a3c 8197 eb3d 3405 4c3d
00000070: cba6 493d e396 47bd 326b 80b9 e3bc 123d
00000080: 2844 90bb 028e 1fbc 489c a43c 42c4 dc3c
00000090: 9681 c13c 1236 4abc 9353 54bd 3921 2bbd
000000a0: f06c a43b 4cec b1bd 2245 bd3c 8919 57bd
000000b0: 2c03 16bd 0d08 3abc 34a8 823d d4e4 ebbc
000000c0: 8e5f 5bbc 0e20 153d 6069 debd 8382 b7bb
000000d0: c62d 4bbc cec5 41bd

stage2_CB.1.conv_3x3_4.weight f4 [6, 1, 3, 3]
-0.005525397 -0.032563306 -0.032370076 0.0371189 0.023202153 0.04679557 -0.03346417 -0.032766752
-0.032837402 -0.027920261 0.044314004 0.010753278 -0.0051556295 -0.025141085 -0.002790154 -0.026384532
0.0077840295 -0.036800154 -0.009797464 -0.0064056735 -0.03365371 0.02074861 0.013443377 0.030111246
0.0015450503 0.014165058 0.030478949 -0.033810284 -0.021076817 -0.016917966 0.071028374 0.07693003
0.09267078 -0.05238276 -0.012692212 -0.046413172 -0.0045174784 -0.06381009 -0.054708634 0.009599074
0.043859135 -0.028162977 0.011563818 -0.019935967 -0.022726195 0.027308937 0.030989327 -0.0062548164
-0.017784864 -0.01071914 0.029765002 0.008231508 0.026460264 0.01197328
00000000: 640e b5bb 1a61 05bd 7c96 04bd fd09 183d
00000010: 7112 be3c b6ac 3f3d ba11 09bd 6e36 06bd
00000020: 8380 06bd 08b9 e4bc 9a82 353d 842e 303c
00000030: 8ef0 a8bb adf4 cdbc 04db 36bb 6024 d8bc
00000040: 2c11 ff3b c2bb 16bd 8b85 20bc afe6 d1bb
00000050: 79d8 09bd fdf8 a93c 9c41 5c3c dcab f63c
00000060: 4983 ca3a 8f14 683c fdae f93c a77c 0abd
00000070: 4aa9 acbc 8c97 8abc 5377 913d 7e8d 9d3d
00000080: 2eca bd3d 4e8f 56bd fff2 4fbc bd1b 3ebd
00000090: 5b07 94bb ddae 82bd 2916 60bd 6f45 1d3c
000000a0: a3a5 333d 0bb6 e6bc 2b76 3d3c c150 a3bc
000000b0: 492c babc feb6 df3c 54dd fd3c 34f5 ccbb
000000c0: 90b1 91bc 559f 2fbc bcd5 f33c 72dd 063c
000000d0: 32c3 d83c 942b 443c

stage2_CB.1.attention.weight f4 [4, 6, 1, 1]
0.0007769419 0.0019497132 0.00016177267 0.00473612 -0.0030061877 0.0018026216 -0.0028243586 -0.0024994763
0.0015494156 -0.00025102257 0.0018525062 -0.004560065 -0.0007183755 0.0004244953 0.0012160601 -0.00012658245
-0.001032237 -0.005982876 0.004603774 0.004134869 0.0010497667 -0.005514002 -0.005732727 0.00047790393
00000000: b0ab 4b3a 858d ff3a 85a1 2939 7431 9b3b
00000010: 7603 45bb f245 ec3a e018 39bb 41ce 23bb
00000020: c315 cb3a ae9b 83b9 cbcf f23a 996c 95bb
00000030: 5d51 3cba cb8e de39 3564 9f3a 38bb 04b9
00000040: 204c 87ba 000c c4bb 41db 963b cc7d 873b
00000050: 5398 893a cdae b4bb 99d9 bbbb 2e8f fa39

stage2_CB.2.conv_1x1_down.weight f4 [6, 24, 1, 1]
0.023446208 0.003508703 -0.059690055 0.030697918 0.027643453 -0.057693757 -0.08811204 -0.06951924
-0.10821334 0.021200007 0.014932822 0.008935499 -0.11934348 0.06573488 0.039089948 -0.023562893
0.00935443 0.13768452 -0.025621327 0.10372359 -0.14712672 -0.0024935906 -0.006002603 -0.0751519
0.0679383 0.036232788 -0.001027926 0.07453884 -0.0708648 -0.07018685 0.0054188287 -0.03953172
-0.071333304 0.119688794 -0.07554157 -0.027823834 -0.12754491 0.103871904 -0.1338818 0.10143589
-0.08731278 0.031331997 -0.08131381 0.2326804 -0.130316 0.03883563 -0.070194565 -0.0755299
0.01077967 -0.09372925 0.00082041015 0.017641753 -0.07297647 -0.008593133 -0.018483136 0.031368084
0.005569786 0.066367134 0.04819337 0.15322769 -0.041279778 0.14531468 -0.059178058 0.011745408
-0.051134195 0.009961482 0.061934322 0.07633935 0.07261002 -0.043355513 0.07028286 -0.06147894
0.011766214 -0.061841827 0.077191554 -0.0044738236 0.044392645 -0.13482563 -0.0038445906 0.07348086
0.020841112 0.01465798 -0.06425009 -0.013463508 -0.04387456 -0.04453522 0.13386793 0.00281042
-0.00649408 5.3778578e-05 0.006804001 0.059600107 0.03266512 0.041882757 -0.07038226 0.049207605
-0.043426424 -0.069628395 -0.07226064 -0.0050166356 0.057473317 -0.08859663 -0.003865238 0.043401763
-0.012463352 0.012828882 0.09275476 -0.02504414 -0.043287154 -0.08089859 -0.045077935 -0.025240956
0.030817112 -0.07955126 0.14991511 -0.06477275 0.0055232304 0.042866256 0.038966615 -0.10026289
-0.061374985 0.10555142 0.104911715 -0.031793397 0.049385983 -0.054889817 0.02371677 -0.052958958
-0.043442488 0.07168918 0.106944986 -0.07955077 0.16255406 -0.03415014 0.047785163 0.014156571
0.08178924 0.14060257 0.031826686 -0.0010300231 -0.06340444 -0.07626477 0.0600621 0.007178342
00000000: 4312 c03c 45f2 653b 8f7d 74bd 337a fb3c
00000010: 8674 e23c 4a50 6cbd 1674 b4bd 1a60 8ebd
00000020: f59e ddbd a3ab ad3c cca8 743c 3366 123c
00000030: 5b6a f4bd 02a0 863d c81c 203d f806 c1bc
00000040: 5343 193c 2cfd 0c3e d1e3 d1bc 096d d43d
00000050: 63a8 16be 826b 23bb 7cb1 c4bb 3de9 99bd
00000060: 3c23 8b3d d568 143d 79bb 86ba d2a7 983d
00000070: 9021 91bd 20be 8fbd 6e90 b13b 03ec 21bd
00000080: 3217 92bd 661f f53d 8ab5 9abd cfee e3bc
00000090: 229b 02be cbba d43d 5018 09be 9fbd cf3d
000000a0: 0bd1 b2bd fb55 003d db87 a6bd c543 6e3e
000000b0: 8f71 05be 1c12 1f3d 2bc2 8fbd 6caf 9abd
000000c0: 379d 303c 1ff5 bfbd cb10 573a 7085 903c
000000d0: b074 95bd 36ca 0cbc f269 97bc d27b 003d
000000e0: c082 b63b 7eeb 873d 6966 453d b8e7 1c3e
000000f0: fc14 29bd 5fcd 143e b164 72bd d06f 403c
00000100: 1772 51bd 7c35 233c d8ae 7d3d ce57 9c3d
00000110: 90b4 943d 8d95 31bd 76f0 8f3d 57d1 7bbd
00000120: 14c7 403c db4d 7dbd 9b16 9e3d 2799 92bb
00000130: 10d5 353d bb0f 0abe 87f5 7bbb 227d 963d
00000140: fbba aa3c 0628 703c 8d95 83bd 0c96 5cbc
00000150: d0b5 33bd 906a 36bd ad14 093e 062f 383b
00000160: 4bcc d4bb 4f90 6138 19f4 de3b 3e1f 743d
00000170: dccb 053d 418d 2b3d 9324 90bd ea8d 493d
00000180: e8df 31bd 5599 8ebd 63fd 93bd 9762 a4bb
00000190: 2469 6b3d 2672 b5bd ef4f 7dbb 0cc6 313d
000001a0: 1633 4cbc 3b30 523c 35f6 bd3d 5e29 cdbc
000001b0: df4d 31bd 29ae a5bd a4a3 38bd 1fc6 cebc
000001c0: 2b74 fc3c c5eb a2bd 5983 193e 93a7 84bd
000001d0: 37fc b43b 8794 2f3d 759b 1f3d a156 cdbd
000001e0: 5664 7bbd 582b d83d f4db d63d cb39 02bd
000001f0: f548 4a3d 25d4 60bd ac49 c23c 7eeb 58bd
00000200: c0f0 31bd c7d1 923d f905 db3d 84eb a2bd
00000210: 9274 263e 04e1 0bbd 60ba 433d f6f0 673c
00000220: 1e81 a73d 1ffa 0f3e b35c 023d d701 87ba
00000230: 30da 81bd b430 9cbd ad03 763d 4c38 eb3b

stage2_CB.2.conv_3x3_1.weight f4 [6, 1, 3, 3]
-0.12437173 -0.23365642 -0.119372964 -0.0124995755 -0.03760759 0.002882263 -0.011890721 -0.09181258
-0.06494545 -0.22600417 -0.01398864 -0.0929857 -0.20459522 0.04889483 -0.09662665 -0.20173638
0.14996713 -0.1035964 -0.08269337 -0.06875836 -0.015406274 -0.07353777 0.03468643 0.02444124
-0.046361417 0.03007319 -0.15063305 0.026094249 -0.0075940615 -0.037388127 -0.058199417 -0.045094717
-0.0145854615 -0.06851789 -0.087991826 -0.006946605 -0.007081652 0.014203832 -0.06748534 -0.025640378
0.06081197 -0.050785005 -0.10372478 0.030900182 -0.0118497135 -0.027782584 0.030575952 -0.06333612
0.0020947952 -0.060597956 0.10288942 -0.05256311 -0.02503267 -0.016416945
00000000: 9bb6 febd a143 6fbe d079 f4bd 05cb 4cbc
00000010: 6b0a 1abd 59e4 3c3b 4cd1 42bc 3c08 bcbd
00000020: 1f02 85bd a36d 67be 9c30 65bc 496f bebd
00000030: 6981 51be f245 483d 31e4 c5bd fb93 4ebe
00000040: fc90 193e 592a d4bd 245b a9bd 2fd1 8cbd
00000050: 996a 7cbc f89a 96bd 5c13 0e3d ff38 c83c
00000060: 78e5 3dbd 0d5c f63c 8d3f 1abe 9bc3 d53c
00000070: 9bd7 f8bb 4b24 19bd 8362 6ebd 3db5 38bd
00000080: dcf7 6ebc 1c53 8cbd 0f35 b4bd 59a0 e3bb
00000090: 340d e8bb 30b7 683c c135 8abd c50b d2bc
000000a0: f915 793d f003 50bd a86d d4bd 6122 fd3c
000000b0: 4d25 42bc 4d98 e3bc 6b7a fa3c 5eb6 81bd
000000c0: d548 093b 9035 78bd b0b7 d23d 6a4c 57bd
000000d0: 5011 cdbc d47c 86bc

stage2_CB.2.conv_3x3_2.weight f4 [6, 1, 3, 3]
0.02780489 -0.12984324 0.013012494 -0.03020671 0.0025086948 -0.013183839 0.005128823 -0.2330398
0.012387703 -0.0064152665 0.06212654 -0.038585458 -0.053588297 0.04486904 -0.17720096 -0.08017604
0.021954644 -0.07786297 -0.034076728 -0.06955923 -0.042954445 -0.0050268997 0.021135954 0.04256658
-0.055720676 -0.103390515 -0.08568231 0.111987375 -0.0033293671 -0.018776877 0.021962618 -0.0337932
0.032612596 0.039707534 -0.016422624 0.06853907 -0.05215143 -0.012377045 -0.020635867 -0.041573543
0.014195903 -0.065095335 0.025095848 0.025660492 -0.049333706 -0.05814932 -0.024150943 -0.07481682
-0.11049485 -0.07021685 0.020296412 0.0027609789 0.011223385 -0.14083508
00000000: 15c7 e33c a0f5 04be 5b32 553c 1074 f7bc
00000010: ea68 243b 0701 58bc b00f a83b fca1 6ebe
00000020: cbf5 4a3c 2837 d2bb 6678 7e3d c90b 1ebd
00000030: 677f 5bbd 99c8 373d 2b74 35be 5633 a4bd
00000040: 3ada b33c 9f76 9fbd 0a94 0bbd 1275 8ebd
00000050: 00f1 2fbd b1b8 a4bb 4f25 ad3c 4b5a 2e3d
00000060: 5d3b 64bd 68be d3bd 357a afbd a359 e53d
00000070: 8331 5abb f7d1 99bc f3ea b33c bd6a 0abd
00000080: c994 053d 5ea4 223d bd88 86bc 365e 8c3d
00000090: bd9c 55bd 17c9 4abc 8d0c a9bc 0549 2abd
000000a0: ef95 683c b450 85bd cf95 cd3c f435 d23c
000000b0: 2412 4abd fb2d 6ebd 33d8 c5bc 9039 99bd
000000c0: 204b e2bd dacd 8fbd a944 a63c 8af1 343b
000000d0: 4ae2 373c 1237 10be

stage2_CB.2.conv_3x3_3.weight f4 [6, 1, 3, 3]
-0.040586412 -0.10292549 -0.08186327 -0.057289205 0.03980836 -0.011009096 -0.08117944 -0.1373612
-0.01787317 -0.04796229 0.074483745 -0.04414523 -0.10008463 0.06815037 -0.044719793 -0.02543124
0.046740487 -0.029451225 -0.02148477 -0.04969284 -0.016573338 0.02784752 0.036294784 0.017434675
-0.008854005 -0.114299424 -0.031151066 0.030555688 0.026289407 0.054461855 0.009989588 -0.026806105
0.031132251 0.107118696 0.06629843 -0.013528474 -0.024983559 0.014576267 0.015848737 0.04519648
0.02930705 0.035771668 0.052989934 -0.048077635 0.023016023 -0.028177056 0.07514388 0.03140891
-0.037514962 -0.024166267 -0.016063709 -0.08197684 0.06446626 -0.020558879
00000000: f03d 26bd 99ca d2bd eea7 a7bd 16a8 6abd
00000010: 170e 233d 7f5f 34bc 6841 a6bd 6aa8 0cbe
00000020: c16a 92bc 1b74 44bd ef8a 983d a1d1 34bd
00000030: 2cf9 ccbd 6c92 8b3d 1a2c 37bd 2d55 d0bc
00000040: f472 3f3d b243 f1bc d400 b0bc b88a 4bbd
00000050: cfc4 87bc 7b20 e43c d7a9 143d 2ad3 8e3c
00000060: 6310 11bc d115 eabd 8530 ffbc ec4f fa3c
00000070: e25c d73c 6513 5f3d 5eab 233c 7a98 dbbc
00000080: 1009 ff3c 0c61 db3d 79c7 873d 88a6 5dbc
00000090: 52aa ccbc 4cd1 6e3c 36d5 813c f21f 393d
000000a0: 5715 f03c 5085 123d f90b 593d 0eed 44bd
000000b0: 198c bc3c 92d3 e6bc 09e5 993d a1a6 003d
000000c0: 4aa9 19bd 56f8 c5bc 0a98 83bc 79e3 a7bd
000000d0: e306 843d 186b a8bc

stage2_CB.2.conv_3x3_4.weight f4 [6, 1, 3, 3]
0.035785526 -0.038451064 0.026815346 -0.07154647 -0.030009583 -0.033246957 0.0038214442 -0.084224924
0.032580107 -0.017525833 -0.04947001 -0.045511954 -0.07393884 0.08282566 -0.04426241 -0.03428106
-0.044115387 -0.046786092 0.030056706 -0.039864358 0.03243632 -0.04997198 0.090371005 -0.090240195
0.05110442 -0.058083337 0.02242056 0.009168459 0.008184933 -0.014540604 -0.030570377 0.012272002
-0.021275636 -0.024075601 -0.04798734 -0.021687934 0.076076366 -0.012258718 -0.006547718 0.016399866
-0.087528996 0.047889154 0.03945301 0.0011575586 0.07001636 -0.046170212 0.09212885 0.00956997
-0.061828703 -0.058587328 -0.049421642 0.04799813 0.07432386 -0.026576322
00000000: d893 123d dd7e 1dbd dbab db3c f586 92bd
00000010: a8d6 f5bc f62d 08bd 3271 7a3b 1e7e acbd
00000020: b872 053d 5692 8fbc 11a1 4abd be6a 3abd
00000030: 3f6d 97bd 80a0 a93d 804c 35bd 4c6a 0cbd
00000040: 56b2 34bd c6a2 3fbd 7b39 f63c cf48 23bd
00000050: f2db 043d 6baf 4cbd 6f14 b93d dacf b8bd
00000060: de52 513d cbe8 6dbd 52ab b73c 4e37 163c
00000070: 191a 063c b73b 6ebc ba6e fabc 8210 493c
00000080: 3e4a aebc 323a c5bc 5f8e 44bd e5aa b1bc
00000090: edcd 9b3d cad8 48bc 3d8e d6bb 0359 863c
000000a0: 6742 b3bd 6b27 443d 7b99 213d 39b9 973a
000000b0: bd64 8f3d fa1c 3dbd 0dae bc3d 5dcb 1c3c
000000c0: 1840 7dbd 44f9 6fbd 596e 4abd b099 443d
000000d0: 1c37 983d 96b6 d9bc

stage2_CB.2.attention.weight f4 [4, 6, 1, 1]
0.003582342 0.0018221914 0.000897839 -0.0036872854 -0.0023872098 -0.0021668912 0.001844635 -0.0005488776
-0.002088468 -0.0017803065 0.0032076905 0.00281873 -0.0012322449 -0.0062161675 -0.0025231822 0.0021641636
0.0033551115 0.00073963864 -0.0025964305 0.017990537 0.0032179707 -0.0050765784 0.0077475 -0.01109932
00000000: bac5 6a3b 99d6 ee3a f55c 6b3a 62a6 71bb
00000010: bc72 1cbb 6702 0ebb aec7 f13a 8de2 0fba
00000020: aede 08bb 2c59 e9ba 1e38 523b 71ba 383b
00000030: 4783 a1ba feb0 cbbb f95b 25bb a4d4 0d3b
00000040: 6ee1 5b3b 4fe4 413a e028 2abb e460 933c
00000050: 97e4 523b 6d59 a6bb bede fd3b ecd9 35bc

stage2_DB.0.DB.0.weight f4 [24, 24, 1, 1]
-0.0033120145 0.036113955 0.045009468 0.004703349 -0.06847939 0.036973298 0.076999396 0.096495844
0.055359628 -0.0045197913 -0.05944529 -0.058831275 -0.03071416 0.011236868 -0.08417162 0.12517087
-0.022247141 0.020439623 0.06451252 -0.09313601 0.1032188 -0.07764162 0.020739568 0.08439806
0.05321138 -0.030378059 0.043595884 0.2970784 -0.068622075 -0.009846856 0.017253947 -0.0063230884
0.046212077 -0.017417897 0.0036952817 0.010227083 -0.08778781 -0.0915163 0.00220443 0.026837723
-0.06989083 0.010344582 0.011967179 -0.063953415 0.008331755 -0.06698137 0.011609325 -0.013795001
0.08698699 -0.18279949 -0.14451724 -0.037380584 0.052340146 -0.006056444 -0.0454904 -0.023862477
-0.04927417 0.020581534 -0.007919235 0.03166163 0.026139753 0.103352524 -0.026923178 -0.07852304
0.09187609 0.07798591 0.036256358 0.03191403 -0.07648026 -0.052492503 0.042203754 -0.15708871
-0.072204925 -0.00020880644 -0.060754586 -0.007950507 -0.038418453 0.05274359 -0.08337913 -0.020392882
0.089803286 0.019740002 -0.09302813 -0.05979109 0.014849297 -0.08277343 -0.07116806 -0.06070446
0.030080257 -0.017852526 -0.062208664 0.105156295 -0.0036666512 0.070498236 -0.0845953 -0.036220852
-0.058403514 -0.015019925 0.032404777 0.017451962 0.010552597 -0.108844735 0.06330826 0.028554285
-0.104331866 -0.025280586 -0.063056715 0.014235023 -0.08178669 0.01808718 -0.014632827 0.083069995
-0.014991277 -0.03917941 -0.04178182 -0.041930024 0.020435512 0.021720786 -0.054275397 0.04947434
-0.0003591727 0.0697782 0.057051197 -0.021365235 -0.046100397 -0.03586574 0.044283647 0.014661397
0.028160594 -0.03197418 0.020934321 0.121563345 0.04783917 -0.019762931 0.050037324 0.03956823
-0.013430233 0.069340765 0.048913464 -0.100924045 0.06019594 0.039056472 -0.04236148 0.012541486
-0.062746525 0.006283616 0.023764076 0.0132403355 -0.015691835 0.037487704 -0.053463254 -0.0840227
-0.0029541356 0.016316783 -0.11643874 0.040071394 -0.02512583 0.029726816 -0.112311915 0.019300152
0.007499894 -0.031016119 -0.16541606 -0.008197615 -0.06321375 -0.10573314 0.010564252 0.017428208
-0.028442288 -0.022070754 0.08331639 0.09016664 0.054175857 0.08826778 0.027538499 -0.04924817
-0.027777776 -0.06470552 -0.0036325953 -0.01810655 0.012145439 0.09983182 -0.016135586 -0.010398242
-0.09249334 0.064296514 0.07097279 0.04758828 0.0069714193 -0.003604081 0.031067394 -0.032401536
-0.016277282 -0.026075967 0.14381184 -0.0050686575 -0.00669798 0.0016601145 -0.057493035 0.06192605
0.0221287 -0.03279522 -0.047673214 -0.0133791175 0.10116521 0.034479033 -0.02015416 0.007617513
-0.03139553 0.0037585092 -0.08604954 -0.03408459 0.06102742 -0.018746492 0.020069716 -0.01701625
-0.015504201 0.0070600505 -0.024611691 0.019229095 0.0054922956 -0.067712866 0.023546232 0.011838781
-0.18738428 -0.02418407 0.017616706 -0.0112351095 -0.009919399 -0.023184707 -0.009347074 0.00689378
-0.013975253 -0.04055688 0.06838201 0.0021029199 -0.00319964 -0.03153288 -0.056517355 0.032686636
-0.08608735 -0.13004611 -0.11064504 0.0061882967 -0.018960703 -0.08151645 -0.004073219 0.0034572599
-0.11868022 -0.057714682 0.025077641 -0.04853992 0.07570654 0.027911007 0.123207115 -0.019313743
00000000: 620e 59bb 3aec 133d d95b 383d 8d1e 9a3b
00000010: ec3e 8cbd 5071 173d dcb1 9d3d 9d9f c53d
00000020: c7c0 623d c21a 94bb e87c 73bd 10f9 70bd
00000030: 439c fbbc d71a 383c 2c62 acbd cb2c 003e
00000040: a33f b6bc ff70 a73c 241f 843d 18be bebd
00000050: 6164 d33d 9202 9fbd 07e6 a93c e4d8 ac3d
00000060: 2df4 593d 68db f8bc 9991 323d a91a 983e
00000070: bb89 8cbd b554 21bc 2658 8d3c e931 cfbb
00000080: e048 3d3d faaf 8ebc 8a2c 723b 7f8f 273c
00000090: 18ca b3bd e66c bbbd 3378 103b c9da db3c
000000a0: ec22 8fbd 527c 293c fd11 443c 02fa 82bd
000000b0: ea81 083c 872d 89bd 0a35 3e3c 6e04 62bc
000000c0: 3c26 b23d ca2f 3bbe 54fc 13be 621c 19bd
000000d0: 9f62 563d 2275 c6bb 2454 3abd 3e7b c3bc
000000e0: b6d3 49bd 9b9a a83c aebf 01bc a0af 013d
000000f0: 0923 d63c 7daa d33d ff8d dcbc b0d0 a0bd
00000100: 8829 bc3d 14b7 9f3d 8c81 143d 49b8 023d
00000110: afa1 9cbd 6102 57bd d8dd 2c3d dddb 20be
00000120: 2de0 93bd 0df3 5ab9 cdd9 78bd d842 02bc
00000130: ab5c 1dbd aa09 583d adc2 aabd f90e a7bc
00000140: c9ea b73d c9b5 a13c 8885 bebd 81e7 74bd
00000150: 774a 733c 1e85 a9bd 8fc0 91bd 3da5 78bd
00000160: df6a f63c 763f 92bc 83ce 7ebd 2f5c d73d
00000170: 334c 70bb 6161 903d 4d40 adbd 515c 14bd
00000180: 8638 6fbd 2216 76bc dfba 043d 6bf7 8e3c
00000190: cde4 2c3c fde9 debd c3a7 813d adea e93c
000001a0: f2ab d5bd 3b19 cfbc e123 81bd 043a 693c
000001b0: c87f a7bd 912b 943c 86be 6fbc 9a20 aa3d
000001c0: f99d 75bc 977a 20bd 6a23 2bbd d1be 2bbd
000001d0: 6068 a73c caef b13c e14f 5ebd 9ba5 4a3d
000001e0: 584f bcb9 dfe7 8e3d 84ae 693d 2506 afbc
000001f0: c5d3 3cbd f4e7 12bd c562 353d 5b36 703c
00000200: 0cb1 e63c 5cf7 02bd 747e ab3c 34f6 f83d
00000210: 01f3 433d dfe5 a1bc f0f3 4c3d 4c12 223d
00000220: 7b0a 5cbc 8802 8e3d 7c59 483d 44b1 cebd
00000230: 0590 763d aef9 1f3d 3b83 2dbd ce7a 4d3c
00000240: 4081 80bd cbe6 cd3b e1ac c23c feed 583c
00000250: 2a8c 80bc b58c 193d 49fc 5abd 1814 acbd
00000260: 2c9a 41bb c6aa 853c 6f77 eebd e721 243d
00000270: afd4 cdbc a785 f33c ca03 e6bd 5a1b 9e3c
00000280: acc1 f53b 8415 febc d462 29be 4a4f 06bc
00000290: 3676 81bd 9e8a d8bd af15 2d3c 9ac5 8e3c
000002a0: cdff e8bc bacd b4bc c9a1 aa3d 4aa9 b83d
000002b0: 81e7 5d3d bdc5 b43d 6b98 e13c 73b8 49bd
000002c0: 388e e3bc 5484 84bd d610 6ebb 3054 94bc
000002d0: aafd 463c a074 cc3d c72e 84bc 635d 2abc
000002e0: 266d bdbd e4ad 833d 2f5a 913d eeeb 423d
000002f0: 8170 e43b 7232 6cbb 0c81 fe3c 79b7 04bd
00000300: ef57 85bc 449d d5bc 6943 133e fb16 a6bb
00000310: bb7a dbbb 3398 d93a d17d 6bbd 2ba6 7d3d
00000320: 3f47 b53c 4854 06bd fd44 43bd 1634 5bbc
00000330: b52f cf3d e339 0d3d 561a a5bc 559c f93b
00000340: 9998 00bd 5251 763b be3a b0bd 489c 0bbd
00000350: e3f7 793d 3e92 99bc 3f69 a43c aa65 8bbc
00000360: 5505 7ebc ff57 e73b 759e c9bc 5686 9d3c
00000370: b7f8 b33b 0bad 8abd 07e4 c03c 72f7 413c
00000380: aae1 3fbe ac1d c6bc e950 903c 7713 38bc
00000390: fa84 22bc dbed bdbc 7824 19bc 38e5 e13b
000003a0: 76f8 64bc f91e 26bd de0b 8c3d 24d1 093b
000003b0: 0db1 51bb 9f28 01bd be7e 67bd 6ce2 053d
000003c0: 914e b0bd cf2a 05be de99 e2bd 32c7 ca3b
000003d0: 7a53 9bbc 19f2 a6bd a378 85bb 3293 623b
000003e0: 9d0e f3bd 3b66 6cbd a06f cd3c ccd1 46bd
000003f0: 080c 9b3d a0a5 e43c 0354 fc3d db37 9ebc
